{"config": {"layers": [{"config": {"kernel_constraint": null, "dtype": "float32", "activation": "relu", "kernel_initializer": {"config": {"mode": "fan_avg", "seed": null, "scale": 1.0, "distribution": "uniform"}, "class_name": "VarianceScaling"}, "bias_regularizer": null, "batch_input_shape": [null, 16, 112, 112, 3], "trainable": true, "filters": 64, "data_format": "channels_last", "dilation_rate": [1, 1, 1], "kernel_size": [3, 3, 3], "bias_initializer": {"config": {}, "class_name": "Zeros"}, "kernel_regularizer": null, "strides": [1, 1, 1], "bias_constraint": null, "activity_regularizer": null, "name": "conv1", "padding": "same", "use_bias": true}, "class_name": "Conv3D"}, {"config": {"trainable": true, "data_format": "channels_last", "pool_size": [1, 2, 2], "strides": [1, 2, 2], "name": "pool1", "padding": "valid"}, "class_name": "MaxPooling3D"}, {"config": {"kernel_constraint": null, "activation": "relu", "kernel_initializer": {"config": {"mode": "fan_avg", "seed": null, "scale": 1.0, "distribution": "uniform"}, "class_name": "VarianceScaling"}, "bias_regularizer": null, "dilation_rate": [1, 1, 1], "data_format": "channels_last", "trainable": true, "kernel_size": [3, 3, 3], "filters": 128, "bias_initializer": {"config": {}, "class_name": "Zeros"}, "kernel_regularizer": null, "strides": [1, 1, 1], "bias_constraint": null, "activity_regularizer": null, "name": "conv2", "padding": "same", "use_bias": true}, "class_name": "Conv3D"}, {"config": {"trainable": true, "data_format": "channels_last", "pool_size": [2, 2, 2], "strides": [2, 2, 2], "name": "pool2", "padding": "valid"}, "class_name": "MaxPooling3D"}, {"config": {"kernel_constraint": null, "activation": "relu", "kernel_initializer": {"config": {"mode": "fan_avg", "seed": null, "scale": 1.0, "distribution": "uniform"}, "class_name": "VarianceScaling"}, "bias_regularizer": null, "dilation_rate": [1, 1, 1], "data_format": "channels_last", "trainable": true, "kernel_size": [3, 3, 3], "filters": 256, "bias_initializer": {"config": {}, "class_name": "Zeros"}, "kernel_regularizer": null, "strides": [1, 1, 1], "bias_constraint": null, "activity_regularizer": null, "name": "conv3a", "padding": "same", "use_bias": true}, "class_name": "Conv3D"}, {"config": {"kernel_constraint": null, "activation": "relu", "kernel_initializer": {"config": {"mode": "fan_avg", "seed": null, "scale": 1.0, "distribution": "uniform"}, "class_name": "VarianceScaling"}, "bias_regularizer": null, "dilation_rate": [1, 1, 1], "data_format": "channels_last", "trainable": true, "kernel_size": [3, 3, 3], "filters": 256, "bias_initializer": {"config": {}, "class_name": "Zeros"}, "kernel_regularizer": null, "strides": [1, 1, 1], "bias_constraint": null, "activity_regularizer": null, "name": "conv3b", "padding": "same", "use_bias": true}, "class_name": "Conv3D"}, {"config": {"trainable": true, "data_format": "channels_last", "pool_size": [2, 2, 2], "strides": [2, 2, 2], "name": "pool3", "padding": "valid"}, "class_name": "MaxPooling3D"}, {"config": {"kernel_constraint": null, "activation": "relu", "kernel_initializer": {"config": {"mode": "fan_avg", "seed": null, "scale": 1.0, "distribution": "uniform"}, "class_name": "VarianceScaling"}, "bias_regularizer": null, "dilation_rate": [1, 1, 1], "data_format": "channels_last", "trainable": true, "kernel_size": [3, 3, 3], "filters": 512, "bias_initializer": {"config": {}, "class_name": "Zeros"}, "kernel_regularizer": null, "strides": [1, 1, 1], "bias_constraint": null, "activity_regularizer": null, "name": "conv4a", "padding": "same", "use_bias": true}, "class_name": "Conv3D"}, {"config": {"kernel_constraint": null, "activation": "relu", "kernel_initializer": {"config": {"mode": "fan_avg", "seed": null, "scale": 1.0, "distribution": "uniform"}, "class_name": "VarianceScaling"}, "bias_regularizer": null, "dilation_rate": [1, 1, 1], "data_format": "channels_last", "trainable": true, "kernel_size": [3, 3, 3], "filters": 512, "bias_initializer": {"config": {}, "class_name": "Zeros"}, "kernel_regularizer": null, "strides": [1, 1, 1], "bias_constraint": null, "activity_regularizer": null, "name": "conv4b", "padding": "same", "use_bias": true}, "class_name": "Conv3D"}, {"config": {"trainable": true, "data_format": "channels_last", "pool_size": [2, 2, 2], "strides": [2, 2, 2], "name": "pool4", "padding": "valid"}, "class_name": "MaxPooling3D"}, {"config": {"kernel_constraint": null, "activation": "relu", "kernel_initializer": {"config": {"mode": "fan_avg", "seed": null, "scale": 1.0, "distribution": "uniform"}, "class_name": "VarianceScaling"}, "bias_regularizer": null, "dilation_rate": [1, 1, 1], "data_format": "channels_last", "trainable": true, "kernel_size": [3, 3, 3], "filters": 512, "bias_initializer": {"config": {}, "class_name": "Zeros"}, "kernel_regularizer": null, "strides": [1, 1, 1], "bias_constraint": null, "activity_regularizer": null, "name": "conv5a", "padding": "same", "use_bias": true}, "class_name": "Conv3D"}, {"config": {"kernel_constraint": null, "activation": "relu", "kernel_initializer": {"config": {"mode": "fan_avg", "seed": null, "scale": 1.0, "distribution": "uniform"}, "class_name": "VarianceScaling"}, "bias_regularizer": null, "dilation_rate": [1, 1, 1], "data_format": "channels_last", "trainable": true, "kernel_size": [3, 3, 3], "filters": 512, "bias_initializer": {"config": {}, "class_name": "Zeros"}, "kernel_regularizer": null, "strides": [1, 1, 1], "bias_constraint": null, "activity_regularizer": null, "name": "conv5b", "padding": "same", "use_bias": true}, "class_name": "Conv3D"}, {"config": {"data_format": "channels_last", "name": "zeropad5", "padding": [[0, 0], [0, 1], [0, 1]], "trainable": true}, "class_name": "ZeroPadding3D"}, {"config": {"trainable": true, "data_format": "channels_last", "pool_size": [2, 2, 2], "strides": [2, 2, 2], "name": "pool5", "padding": "valid"}, "class_name": "MaxPooling3D"}, {"config": {"name": "flatten_1", "data_format": "channels_last", "trainable": true}, "class_name": "Flatten"}, {"config": {"kernel_constraint": null, "activation": "relu", "kernel_initializer": {"config": {"mode": "fan_avg", "seed": null, "scale": 1.0, "distribution": "uniform"}, "class_name": "VarianceScaling"}, "bias_regularizer": null, "trainable": true, "bias_constraint": null, "units": 4096, "bias_initializer": {"config": {}, "class_name": "Zeros"}, "kernel_regularizer": null, "activity_regularizer": null, "name": "fc6", "use_bias": true}, "class_name": "Dense"}, {"config": {"rate": 0.5, "seed": null, "name": "dropout_1", "noise_shape": null, "trainable": true}, "class_name": "Dropout"}, {"config": {"kernel_constraint": null, "activation": "relu", "kernel_initializer": {"config": {"mode": "fan_avg", "seed": null, "scale": 1.0, "distribution": "uniform"}, "class_name": "VarianceScaling"}, "bias_regularizer": null, "trainable": true, "bias_constraint": null, "units": 4096, "bias_initializer": {"config": {}, "class_name": "Zeros"}, "kernel_regularizer": null, "activity_regularizer": null, "name": "fc7", "use_bias": true}, "class_name": "Dense"}, {"config": {"rate": 0.5, "seed": null, "name": "dropout_2", "noise_shape": null, "trainable": true}, "class_name": "Dropout"}, {"config": {"kernel_constraint": null, "activation": "softmax", "kernel_initializer": {"config": {"mode": "fan_avg", "seed": null, "scale": 1.0, "distribution": "uniform"}, "class_name": "VarianceScaling"}, "bias_regularizer": null, "trainable": true, "bias_constraint": null, "units": 487, "bias_initializer": {"config": {}, "class_name": "Zeros"}, "kernel_regularizer": null, "activity_regularizer": null, "name": "fc8", "use_bias": true}, "class_name": "Dense"}], "name": "sequential_1"}, "class_name": "Sequential", "keras_version": "2.2.4", "backend": "tensorflow"}